baseline/bbox_head.pth (torch, 266784 bytes, 4 tensors)

0.weight f4 [128, 512]
0	0x3c147aa4	0.009062443
1	0xbcd38b98	-0.0258234
2	0xbccdaaed	-0.025105918
3	0xbc06ef18	-0.008235715
4	0x3c925f2f	0.017867653
5	0xbd093c7d	-0.03350495
6	0x3cc72dea	0.024313886
7	0xbcd2e1df	-0.02574247
8	0xbcf57d29	-0.029966908
9	0x3ce8f252	0.02843586
10	0x3d09f677	0.033682313
11	0xbd487574	-0.048940137
12	0xbd1db4e6	-0.038502596
13	0x3c227e0f	0.00991775
14	0xbcdee4b0	-0.027208656
15	0xbd00b0fb	-0.03141878
16	0xbcc0cbf7	-0.023534758
17	0xbcdd288f	-0.026996879
18	0xbaea5ed3	-0.0017881043
19	0xbd3cb17a	-0.046067692
20	0x3b3e4c7e	0.0029037292
21	0x3cd866d8	0.026416227
22	0x3ccd377c	0.025050871
23	0xbc547895	-0.012968202
24	0xbce710f3	-0.028206324
25	0x3cc60519	0.024172353
26	0xbb96428a	-0.004585569
27	0xbc9fa592	-0.01948813
28	0x3d11b8f1	0.035576764
29	0x3d0c1db9	0.034208033
30	0xbcd3aa4b	-0.025838038
31	0x3d15ded3	0.036589455
32	0xbae704f3	-0.0017625376
33	0x3c9506ef	0.018191783
34	0x3c4f13c1	0.012638987
35	0x3cdabc8f	0.02670124
36	0x3d08b624	0.033376828
37	0xbd4aa952	-0.049477883
38	0xbbc4c85b	-0.0060053295
39	0xbd13e2e8	-0.036105067
40	0x3cacee20	0.02110964
41	0xbc86971a	-0.016429473
42	0x3caa680e	0.02080157
43	0xbab7bd68	-0.001401824
44	0xbcdd3b8b	-0.027005931
45	0x3c968a0b	0.01837637
46	0x3cd2561d	0.025675828
47	0x3d0b7136	0.034043513
48	0xbd3691ef	-0.044572767
49	0x3aded7d5	0.0017001579
50	0xbd3ad008	-0.04560855
51	0x3cc98fbb	0.024604669
52	0xbcd4bd50	-0.025969177
53	0x3c2c02f8	0.010498755
54	0x3d17bf62	0.03704775
55	0x3d14f609	0.03636745
56	0xbd239c69	-0.039944086
57	0xbcfa20b9	-0.030533182
58	0xbcfa439c	-0.030549817
59	0x3ca147dd	0.019687587
60	0x3d13bd73	0.036069345
61	0x3c0c68f1	0.008569942
62	0xbd045978	-0.032311887
63	0xbd4d4b60	-0.05012071
64	0xbcc06e00	-0.023489952
65	0xbd12baf9	-0.035822842
66	0xbd080d07	-0.03321555
67	0xbcfed5d2	-0.031107817
68	0xbd3ac58b	-0.045598548
69	0x3c1111ba	0.008854324
70	0xbd4d06d6	-0.050055347
71	0x3d1b02de	0.03784453
72	0xbc7eb793	-0.015546697
73	0xbd3a6294	-0.045504168
74	0xbd2dde1f	-0.04244816
75	0x3ce5687d	0.028003925
76	0x3c5de116	0.013542434
77	0xbcf13a1d	-0.029446656
78	0xbca3622b	-0.019944271
79	0x3d0ba79b	0.034095388
80	0xbc73d985	-0.014883404
81	0xbc3a2826	-0.011362111
82	0xb876dc41	-5.8856098e-05
83	0x3c9c92f7	0.019113047
84	0xbcffd1c1	-0.031227948
85	0xbd0a0907	-0.033700015
86	0x3d0efcdf	0.034909125
87	0xbcdca1c9	-0.026932614
88	0x3d14ba07	0.036310222
89	0xbcbb4bd4	-0.022863306
90	0x3c82588f	0.015911369
91	0xbc45601a	-0.012046838
92	0x3c183d5a	0.009291971
93	0x3b8a5b45	0.004222306
94	0x3bf6bed5	0.007530073
95	0xbd409627	-0.047018196
96	0xba582b82	-0.0008246229
97	0xbd13329b	-0.035936933
98	0x3d195a85	0.03743984
99	0xbcbc5125	-0.022987911
100	0xbcd260fa	-0.025681008
101	0x3c50dcb5	0.012747933
102	0x3d040196	0.032228075
103	0xbca7d411	-0.020486863
104	0x3c96a7ee	0.018390622
105	0x3d039bcd	0.032131005
106	0xbcfe4b47	-0.031041754
107	0x3bd9fc64	0.0066524018
108	0xbd057e2a	-0.032591023
109	0xbc2fce8d	-0.010730398
110	0xbd2fd4a4	-0.0429274
111	0x3d16bb33	0.03679962
112	0xbd089746	-0.03334739
113	0xbc9462c0	-0.018113494
114	0xbd3d24b2	-0.046177574
115	0x3c63600d	0.013877881
116	0x3c4f4c90	0.012652531
117	0xbd2705ff	-0.040777203
118	0xbc6915d1	-0.014226393
119	0xbcdb4071	-0.026764126
120	0x3d061daa	0.032743134
121	0xbca699d2	-0.02033702
122	0xbc388f98	-0.011264704
123	0xbd1c7895	-0.038200933
124	0xbcc7623e	-0.024338838
125	0x3c1051ea	0.008808592
126	0xbc528c58	-0.012850843
127	0xbcf86b3a	-0.030324567
128	0xbd471be5	-0.048610587
129	0x3ba861f0	0.005138628
130	0x3c92d8a5	0.01792557
131	0xbcc5be50	-0.0241386
132	0x3c876af6	0.016530495
133	0x3cd85a86	0.026410352
134	0x3d0143d2	0.03155882
135	0x3b133ef6	0.0022467948
136	0x3c3dae6c	0.01157723
137	0xbc6fce9e	-0.014636664
138	0x3ca3a806	0.01997758
139	0xbc9fc4af	-0.019502966
140	0xbc126e86	-0.008937484
141	0xbc0c5b9e	-0.008566765
142	0xbcba3525	-0.02273042
143	0xbcc4bcf5	-0.024015883
144	0xbd49623b	-0.049165946
145	0x3c89d0ac	0.016823135
146	0xbcd41d9d	-0.025893027
147	0x3c7bae12	0.015361326
148	0x3c0f820a	0.008759031
149	0x3d13bb0e	0.03606706
150	0xba770532	-0.00094230764
151	0x3d1b45ac	0.03790824
152	0xbd038cd9	-0.032116745
153	0xbc0a6804	-0.008447651
154	0x3c53184f	0.012884214
155	0xbd1f085c	-0.03882633
156	0x3cab30c0	0.02089727
157	0x3cee3f38	0.02908288
158	0xbb316cb1	-0.0027072842
159	0xbd06cf94	-0.032912806
160	0x3cfb2080	0.030655146
161	0xbc6be8fc	-0.0143988095
162	0xbbf56eb5	-0.007490004
163	0xbc4dc945	-0.012560193
164	0x3b2a1d86	0.0025957539
165	0xbd2e65ba	-0.042577483
166	0xbc0badb0	-0.008525297
167	0xbb054393	-0.0020334467
168	0xbc9b1bd5	-0.01893417
169	0xbd29a08e	-0.041412883
170	0x3c4b2a6e	0.012400253
171	0xbcf9a7bb	-0.030475488
172	0xbce90ef0	-0.028449506
173	0x3c92057f	0.017824886
174	0xbd1a61f1	-0.03769106
175	0xbcc33615	-0.0238295
176	0xbcc1edb1	-0.02367291
177	0x3cf1a5e4	0.029498048
178	0xbcb8be9a	-0.022551823
179	0x3d0fa0dd	0.03506552
180	0xbd0482fd	-0.032351483
181	0xbb7a6f2b	-0.0038213234
182	0xbc17a3c2	-0.0092553515
183	0x3d039ee2	0.032133944
184	0xbc482bb3	-0.01221745
185	0x3bd2525f	0.006418511
186	0xbbbdd028	-0.0057926364
187	0x3c82d5b5	0.015971044
188	0xbc22ff28	-0.009948529
189	0x3cf70dcb	0.030157944
190	0xbc8fb517	-0.017542405
191	0xbd4d14bc	-0.050068602
192	0xbca808c4	-0.020511992
193	0xb91596b3	-0.00014265887
194	0xbd41c968	-0.047311217
195	0xbcfe3745	-0.031032214
196	0xbbc43d87	-0.00598878
197	0x3cbaab72	0.02278683
198	0xbcee7fbd	-0.029113645
199	0x3cdeaca1	0.027181925
200	0x3bf9a3e6	0.007618415
201	0xbd25259a	-0.040319063
202	0xbd1ef9ee	-0.03881257
203	0x3cc30cc2	0.023809794
204	0x3c019d41	0.007911027
205	0x3c3b0142	0.011413874
206	0x3ccbddb5	0.024885992
207	0xbd495a73	-0.049158525
208	0xbbcbabdb	-0.006215555
209	0xbcba9f65	-0.022781083
210	0x3b4e9ff0	0.0031528436
211	0xbce403ae	-0.027833786
212	0xbc9eb001	-0.019371035
213	0xbd470b33	-0.048594665
214	0xbd03b458	-0.03215441
215	0xbd08e23d	-0.033418883
216	0xbd13b283	-0.036058914
217	0x3c7ced15	0.015437384
218	0xbd362b47	-0.044474866
219	0x3c465a30	0.012106463
220	0xbd47a8da	-0.048745014
221	0x3c211eab	0.009833972
222	0xbcac3273	-0.02102015
223	0x3c8f61d8	0.01750271
224	0x3cbd2282	0.023087744
225	0xbd35c048	-0.044372827
226	0xbca0fb88	-0.01965119
227	0xbd144fb3	-0.03620882
228	0xbc338b86	-0.010958558
229	0xbd35209d	-0.044220556
230	0x3cb37231	0.021905037
231	0x3c139c92	0.009009497
232	0x3b3181dc	0.002708546
233	0x3c071a9d	0.008246091
234	0xbb1acd26	-0.0023620813
235	0x3ae33279	0.0017333768
236	0x3c847501	0.016169073
237	0x3c907466	0.017633628
238	0xbd1494e1	-0.036274794
239	0x3c14f991	0.009092704
240	0xbc62ef70	-0.013851032
241	0x3cb5b1dd	0.022179538
242	0x3a6f04e5	0.0009117856
243	0xbcf079a1	-0.029354872
244	0x3b98c5ff	0.004662275
245	0xbc1198a8	-0.008886494
246	0xbc84f516	-0.016230147
247	0xbd171b8f	-0.036891516
248	0x3cbc9027	0.023017956
249	0x3c928551	0.017885836
250	0xbcfc53b9	-0.03080164
251	0xbd28b1e2	-0.041185267
252	0xbc65061f	-0.01397851
253	0xbbdd6959	-0.006756943
254	0x3c6a8bd5	0.014315565
255	0x3cf2c1c7	0.029633416

0.bias f4 [128]
0	0x3d1b2492	0.037876673
1	0x3aaaf2cb	0.0013042329
2	0xbc8679ce	-0.016415503
3	0xbd01dc8d	-0.031704474
4	0xbc5f81c0	-0.013641775
5	0xbd2b540b	-0.041828196
6	0x3d57789d	0.05260526
7	0xbc0af9be	-0.008482395
8	0x3cc3879d	0.023868376
9	0xbcee46b0	-0.02908644
10	0x3c4b2842	0.012399735
11	0xbc4e59f2	-0.012594687
12	0x3d273c19	0.040828798
13	0x3d110c69	0.035412226
14	0xbd2f8433	-0.042850684
15	0xbd062421	-0.0327493
16	0xbca4a246	-0.02009691
17	0x3b7aeae0	0.003828697
18	0x3cc7c9af	0.024388162
19	0xbcebb64d	-0.028773451
20	0xbcf29603	-0.029612547
21	0xbcb2fd88	-0.021849409
22	0x3d072eb4	0.033003524
23	0x3c461f56	0.012092432
24	0xbc955fb6	-0.018234115
25	0xbd16fa3e	-0.036859743
26	0xbb8a41cb	-0.004219269
27	0x3d858128	0.06518775
28	0xbc863f9d	-0.016387755
29	0xbc997847	-0.01873411
30	0x3cb78847	0.02240385
31	0x3c393d07	0.011306054
32	0x3b9ee08f	0.004848547
33	0xbd268bc6	-0.040660642
34	0xbcbb2e7a	-0.02284931
35	0x3c8bcd86	0.017065775
36	0x3c17e7d0	0.009271577
37	0x3cad1017	0.021125836
38	0xbca2350e	-0.01980069
39	0xbcc9d85e	-0.024639305
40	0xbd48b23a	-0.048998095
41	0x3d0b31b2	0.03398294
42	0x3cd9ae34	0.026572324
43	0xbccb8135	-0.024841884
44	0xbc426783	-0.011865499
45	0xbc61fab5	-0.013792683
46	0xbcc42db4	-0.023947574
47	0x3c982c45	0.018575797
48	0xbc301474	-0.010747064
49	0xbcee64da	-0.029100824
50	0x3cfd83d2	0.030946646
51	0xbb886605	-0.0041625523
52	0xbcf135fd	-0.029444689
53	0xbd3c80ee	-0.046021394
54	0xbd192eee	-0.03739827
55	0xbcf6ac37	-0.030111415
56	0xbcbed18c	-0.02329328
57	0x3c7dcc52	0.015490608
58	0x3c851e42	0.01624978
59	0x3bf26512	0.0073973024
60	0xbd1b7f29	-0.037963066
61	0x3bfed6ae	0.0077770567
62	0xbc41294c	-0.011789631
63	0x3c16fcc2	0.009215536
64	0xbc6d5eb3	-0.01448791
65	0xbd284ed7	-0.041090813
66	0xbcf4961e	-0.029856738
67	0x3cc900d7	0.024536533
68	0xbcb44126	-0.022003721
69	0xbd14296e	-0.036172323
70	0xbc1eed7c	-0.009700175
71	0xbc6dc1dc	-0.014511552
72	0xbc9fbf51	-0.019500406
73	0xbc40ad7c	-0.011760112
74	0xbc1a331b	-0.009411599
75	0xbd24b6be	-0.04021334
76	0x3ba90b8b	0.0051588467
77	0x3d45f880	0.04833269
78	0x3c38ab9a	0.011271382
79	0x3c7c7f31	0.015411184
80	0xbc8088e2	-0.01569027
81	0x3ce4b563	0.027918523
82	0xbd17409f	-0.03692686
83	0xbc614bff	-0.013751029
84	0x3d48191c	0.04885207
85	0xbc71f1e8	-0.014767148
86	0xbb223562	-0.0024751057
87	0x3ceb97f1	0.028758975
88	0xbcdecd16	-0.027197402
89	0xbc70debe	-0.014701543
90	0xbbe220bc	-0.006900875
91	0x3ca9a6a6	0.020709347
92	0xbcff8f3b	-0.031196227
93	0x3ca735ca	0.02041139
94	0x3c390ce2	0.011294575
95	0xbd2db125	-0.042405266
96	0x3d3081cf	0.043092545
97	0x3be8d95e	0.0071059903
98	0x3ce6b707	0.028163446
99	0xba3440b3	-0.0006876096
100	0x3d16f46d	0.036854196
101	0x3d01a329	0.031649742
102	0x3d2e09bc	0.042489752
103	0xbced3e06	-0.02896024
104	0x3bfc7086	0.0077038435
105	0x3caec6be	0.021335002
106	0x3c95c84d	0.018283987
107	0xbab9da53	-0.0014179446
108	0xbd318415	-0.043338854
109	0xbd464b9f	-0.04841196
110	0x3aa32822	0.0012447874
111	0x3d24b204	0.04020883
112	0x3c32e221	0.010918171
113	0xbcc6df39	-0.024276363
114	0x3b964ee8	0.004587043
115	0xbd2c13cc	-0.042011067
116	0x3995ef8d	0.00028597974
117	0xbd457559	-0.048207615
118	0xbcaf2cc3	-0.021383649
119	0xbc5b1a1e	-0.013372926
120	0x3ccf3aa1	0.025296511
121	0xbc64b635	-0.013959457
122	0xbd00fc17	-0.03149041
123	0xbc57f21e	-0.013180284
124	0xbd19a485	-0.037510414
125	0xbc0c794a	-0.008573839
126	0xbcdedb14	-0.027204074
127	0xbcc02e19	-0.023459481

2.weight f4 [4, 128]
0	0x3d2867ed	0.041114736
1	0x3d5a65e0	0.05331981
2	0x3d8eeea0	0.06979108
3	0x3da26e43	0.07931187
4	0x3d9edaef	0.07756602
5	0xbd29c113	-0.041443896
6	0xbb39fc4d	-0.0028379143
7	0x3cb6b12b	0.022301277
8	0xbd37fc2b	-0.04491822
9	0xbd95c991	-0.07313836
10	0x3c8eae94	0.01741723
11	0xbc31e6ac	-0.010858219
12	0xbcf572a0	-0.029961884
13	0x3ce7bd2b	0.028288445
14	0xbda05257	-0.07828205
15	0x3cd4733c	0.025933854
16	0x3acd2597	0.0015651461
17	0x3d7edee5	0.062224288
18	0x3ce52414	0.027971305
19	0xbd4af613	-0.04955108
20	0xbd542688	-0.05179456
21	0x3d44c5c0	0.04804015
22	0x3d8c28c4	0.06843713
23	0xbd784b2a	-0.060618557
24	0x3cf6372c	0.030055605
25	0x3ccb768d	0.024836803
26	0xbaf1e1b2	-0.0018454103
27	0x3c06fb2b	0.008238594
28	0x3d801d7f	0.06255626
29	0x3d9e37bc	0.07725474
30	0xbd4bdd11	-0.049771372
31	0x3d8c1e29	0.0684169
32	0x3d7cac99	0.06168804
33	0x3c282fb6	0.010265281
34	0xbbc531bf	-0.006017893
35	0x3d1c3031	0.038131896
36	0xbbbef777	-0.00582784
37	0x3d56962b	0.052389305
38	0x3c209e56	0.009803375
39	0xb9de4900	-0.0004239753
40	0x3cd4c0cc	0.025970839
41	0x3c25e3f7	0.010125152
42	0x3c012331	0.007881925
43	0x3b9caca0	0.0047813207
44	0x3d3f8047	0.046753194
45	0x3c7d7376	0.015469423
46	0xbc021a2d	-0.007940811
47	0xbd00441d	-0.031314958
48	0x3d3b7edd	0.045775283
49	0x3d6d599b	0.057946783
50	0x3ba4ead3	0.005032876
51	0x3ca5164b	0.020152232
52	0x3d874ca5	0.06606416
53	0x3d1d0077	0.03833052
54	0x3cd04d42	0.025427464
55	0xbd500e42	-0.050794847
56	0x3c0753c4	0.008259717
57	0xbc2660fb	-0.010154958
58	0x3d921235	0.07132379
59	0x3d31c764	0.043403044
60	0x3c6a6c6d	0.014308077
61	0xbc989f90	-0.018630773
62	0x3c154938	0.009111695
63	0x3d261404	0.040546432
64	0xbd5582a8	-0.052126557
65	0xbc9e4bca	-0.019323248
66	0x3cb1388c	0.021633409
67	0x3d982bc1	0.074302204
68	0x3d0866af	0.03330105
69	0xbd17cf4b	-0.037062924
70	0x3d991938	0.07475513
71	0xbda2922e	-0.07938038
72	0x3cd77ad6	0.02630369
73	0xbd783a36	-0.06060239
74	0xbcca0344	-0.02465976
75	0xbd904ef3	-0.07046308
76	0x3d48776d	0.04894202
77	0x3d5306cc	0.051520154
78	0x3c21255f	0.00983557
79	0x3bc9e565	0.006161379
80	0x3c4792cc	0.012180995
81	0x3d8075b8	0.06272453
82	0xbd94ce28	-0.07265884
83	0x3d7003ba	0.058597304
84	0xbce24443	-0.02762044
85	0xbafa6c49	-0.0019105758
86	0x3d8fc582	0.070200935
87	0x3d0b37e6	0.033988856
88	0xbd04ee6a	-0.032453932
89	0xbd20216e	-0.03909438
90	0xbd8961dc	-0.06708118
91	0x3b847410	0.004042156
92	0xbca5ee12	-0.020255122
93	0xbca0ca76	-0.01962779
94	0x3ceb0b87	0.02869202
95	0x39f3a9ff	0.0004647523
96	0xbc11a9ed	-0.008890611
97	0x3b486589	0.0030578098
98	0x3b8b407a	0.0042496296
99	0xbd8ebcfe	-0.06969641
100	0x3ca57ef7	0.020202143
101	0x3d8d4554	0.06897989
102	0xbd235e35	-0.039884765
103	0xbd5ae9e5	-0.053445715
104	0xbd83c633	-0.06434288
105	0x3d88b4a9	0.06675083
106	0xbdc9ae0f	-0.09847652
107	0x3bbe4e29	0.0058076573
108	0xbd5bcfb6	-0.053664885
109	0x3d65c153	0.05609257
110	0x3d0fdaba	0.035120703
111	0xbc82a202	-0.015946392
112	0x3b3db0fd	0.0028944605
113	0xbd4fe48a	-0.05075506
114	0x3b71e53f	0.0036910323
115	0x3c43486e	0.011919124
116	0xbc4d466f	-0.012529
117	0xbcc3013e	-0.023804303
118	0xbd58db00	-0.05294323
119	0xbc69eb25	-0.014277254
120	0xbc8311d1	-0.015999706
121	0xbc73e42c	-0.014885943
122	0xbb34067d	-0.0027469688
123	0x3d696279	0.056978676
124	0x3d51ff9e	0.051269166
125	0xbc25b710	-0.010114446
126	0x3da56c38	0.08077282
127	0x3d52db8b	0.051478904
128	0xbd4e8b75	-0.050425965
129	0x3c2bb216	0.010479471
130	0xbd97011f	-0.07373261
131	0xbd2ba117	-0.041901674
132	0xbd2f7d78	-0.042844266
133	0x3c0bb85f	0.008527844
134	0xbd905c1e	-0.0704882
135	0x3d471e63	0.048612963
136	0x3c7c0ac0	0.015383422
137	0xbd9f291e	-0.07771514
138	0x3c5695c9	0.013097235
139	0xbccd29f4	-0.025044419
140	0xbb03a708	-0.0020088572
141	0x3a9e38d1	0.0012071376
142	0x3d8fc488	0.07019907
143	0x3d8aebae	0.067832336
144	0xbcd06558	-0.02543895
145	0x3d43d1ba	0.047807433
146	0xbc1e1a7f	-0.009649872
147	0x3c8cceba	0.017188419
148	0x3c10a7b3	0.008829045
149	0x3d3f6e94	0.046736315
150	0x3d97fc43	0.07421162
151	0x3c910c92	0.01770619
152	0x3c4fc08d	0.012680185
153	0xbc8643fb	-0.016389837
154	0x3c0f477c	0.008745071
155	0x3b33df27	0.0027446242
156	0xbc119e72	-0.008887874
157	0xbda615e9	-0.08109648
158	0xbcaa7a94	-0.020810403
159	0xbd6172d1	-0.055041138
160	0x3d7636f1	0.06011099
161	0xbc9b265f	-0.018939195
162	0x3d8e4945	0.06947569
163	0x3b8e16f1	0.004336231
164	0xbca70aa1	-0.02039081
165	0x3d2105a4	0.03931202
166	0x3b05dd78	0.0020426195
167	0x3caab18c	0.020836614
168	0xbdade8b3	-0.084916495
169	0xbd9357f1	-0.07194508
170	0x3ccadfcb	0.024764916
171	0xbd0653da	-0.03279481
172	0x3d7b9e4a	0.061430253
173	0xbd95b0e7	-0.07309132
174	0x3c1e0771	0.009645329
175	0xbcf4732f	-0.02984008
176	0xbc95c52e	-0.0182825
177	0xbd021133	-0.031754684
178	0x3cf2afa1	0.029624762
179	0x3c0893c9	0.008336016
180	0x3d91d2b8	0.071202695
181	0x3d075705	0.033041973
182	0xbcdd44b2	-0.027010296
183	0xbd90251f	-0.0703833
184	0x3d136ee0	0.03599441
185	0x3d45544c	0.048176095
186	0x3d8ead46	0.06966643
187	0xbb4643e4	-0.0030252868
188	0x3d9b5ba0	0.075858355
189	0x3d04a49d	0.03238355
190	0xbc595014	-0.013263721
191	0xbb7ac439	-0.003826393
192	0xbd0e9668	-0.034811407
193	0x3ba33dce	0.004981733
194	0x3da5cd41	0.0809579
195	0xbcd6aa3e	-0.026204225
196	0xbd94eaa1	-0.072713144
197	0xbd3f9937	-0.046776976
198	0xbd10939c	-0.03529702
199	0xbd13033c	-0.035891756
200	0xbd86eeb3	-0.06588497
201	0x3d080b5b	0.033213954
202	0xbd879034	-0.066193014
203	0x3ccdfbfb	0.025144568
204	0xbd17ed2b	-0.037091415
205	0x3be054f7	0.006846066
206	0x3d718aa3	0.058970105
207	0xbdb8a932	-0.090166464
208	0x3d4933bd	0.049121607
209	0x3c8fe568	0.017565444
210	0xbc42e9af	-0.011896535
211	0xbd8540e7	-0.0650652
212	0xb79a6c1d	-1.8408575e-05
213	0x3c07e0c4	0.008293334
214	0x3d6d3c9d	0.057919133
215	0xbdab53ca	-0.08365591
216	0x3ce17ff3	0.027526831
217	0x3c594f25	0.013263498
218	0x3a78d165	0.00094916514
219	0xbd49e41d	-0.04928981
220	0x3d0efe5f	0.034910556
221	0x3d333294	0.043749407
222	0x3d5646f7	0.05231377
223	0xbbe1a021	-0.006885544
224	0xbc1d6b54	-0.009608109
225	0x3d0c219a	0.034211732
226	0xbc4dfdd1	-0.012572722
227	0xbcd64142	-0.026154164
228	0xbd93f716	-0.07224862
229	0x3da46ffe	0.08029173
230	0xbd34c111	-0.044129435
231	0xbd047858	-0.03234133
232	0xbbdaad74	-0.0066735093
233	0xbd8019a8	-0.062548935
234	0x38d12218	9.972247e-05
235	0xbcae7470	-0.021295756
236	0xbd2c75c8	-0.042104512
237	0xbcae6357	-0.021287603
238	0x3ccd211a	0.025040198
239	0xbd9a6066	-0.07537918
240	0xbcb22c3a	-0.021749604
241	0x3c0b3831	0.008497284
242	0xbbad8ef8	-0.005296584
243	0xbd767f75	-0.060180146
244	0x3da36674	0.07978526
245	0x3d93963e	0.07206391
246	0x3d7b34d5	0.06132968
247	0x3d6af6b2	0.057364173
248	0x3cf23ca0	0.029569924
249	0x3c6d7d03	0.014495137
250	0x3cb41225	0.021981308
251	0xbd3fef9b	-0.046859365
252	0xbd139b30	-0.03603667
253	0xbda23048	-0.07919365
254	0x3d89e0b4	0.06732312
255	0xbc80f972	-0.015743945

2.bias f4 [4]
0	0xbdc3fcdf	-0.09569716
1	0xbdc5c0a2	-0.096558824
2	0x3dbb9fb3	0.091613196
3	0xbd8a0c62	-0.06740643
